model/model-dis-lda_basis.npy (npy, 7280 bytes, 1 tensors)

array (column-major) f4 [2, 900]
0	0x3c80f26d	0.015740598
1	0xbc2a0c1a	-0.010378862
2	0x3d549319	0.051898096
3	0xbdf3d181	-0.11905194
4	0xbd8f2c1a	-0.069908336
5	0x3db63ef8	0.08898729
6	0x3dae2289	0.08502681
7	0xbde085ad	-0.10962997
8	0xbd912d14	-0.07088676
9	0x3dfe53a9	0.12418301
10	0x3d8ceaa2	0.0688069
11	0xbd2cf658	-0.04222712
12	0xbd150db7	-0.036390033
13	0x3ce8c123	0.028412407
14	0x3d92d35c	0.0716922
15	0xbc51071e	-0.0127580445
16	0x3c3a042d	0.011353535
17	0xbba40940	-0.0050059855
18	0xbbae65b8	-0.0053221844
19	0xb98b98d9	-0.00026626026
20	0x3d6b2e5f	0.05741727
21	0xbd4f1487	-0.050556686
22	0x3d2e84a6	0.042606972
23	0x3d08212a	0.033234753
24	0xbba0eee5	-0.004911291
25	0x3afd6dd4	0.00193351
26	0x3cc64d54	0.024206795
27	0xbca6c92c	-0.020359598
28	0xbc6a5022	-0.014301332
29	0x3b1b4de2	0.0023697545
30	0x3d690a26	0.056894444
31	0xbc9d95d8	-0.01923649
32	0xbd546508	-0.051854163
33	0xbd409ce0	-0.047024608
34	0xbbf93230	-0.00760486
35	0xbba4b2f0	-0.005026214
36	0xbc926404	-0.017869957
37	0x3c306b07	0.010767705
38	0xbc6b1b3d	-0.014349756
39	0x3b35a64d	0.0027717531
40	0xbcbcbf28	-0.02304037
41	0xbc6c976c	-0.014440399
42	0xbc8bba12	-0.017056499
43	0xbb4d8158	-0.0031357612
44	0x3ca6bcdf	0.020353733
45	0x3a02ecf3	0.00049944146
46	0xbcdf248b	-0.027239105
47	0xbb99577b	-0.004679618
48	0xbcba656a	-0.022753436
49	0xbc9f1f43	-0.019424086
50	0x3c83db2c	0.01609572
51	0xbba74248	-0.005104337
52	0xbd1e39d3	-0.038629364
53	0x3b13fb1e	0.0022580097
54	0x3b5feee0	0.003416948
55	0x3a8f68f5	0.0010941314
56	0x3c0e8f49	0.008701154
57	0x3c9c5f77	0.01908849
58	0xbcfdf2fd	-0.030999655
59	0x3ce00fb3	0.027351236
60	0xbca5eb01	-0.02025366
61	0xbc69d0ff	-0.01427102
62	0xbc54a22f	-0.012978121
63	0x3c8a4503	0.01687861
64	0x3d554ba9	0.05207411
65	0xbd86975a	-0.06571837
66	0xbdbccc6f	-0.0921868
67	0x3daebae4	0.0853174
68	0x3d76ae67	0.060224917
69	0x3d8659e7	0.06560116
70	0x3a826876	0.0009949345
71	0x38dcaf07	0.00010523019
72	0xbc02b84c	-0.00797851
73	0x3c19cb95	0.009386917
74	0x3d3ffd03	0.04687215
75	0x3c400532	0.011719989
76	0x3b87eef4	0.0041483585
77	0x3ab1fac9	0.0013578768
78	0x3cf9ac86	0.030477773
79	0x3d37ab74	0.044841245
80	0x3c398197	0.0113224005
81	0x3c39729f	0.011318832
82	0x3d98fd06	0.074701354
83	0x3acbe969	0.0015557233
84	0xbc01dce7	-0.007926202
85	0xbbea5a04	-0.007151844
86	0x3d7c0577	0.06152865
87	0x3d4740a7	0.04864564
88	0x3c3959db	0.011312927
89	0x3a3ac484	0.000712462
90	0xbd2b257f	-0.041783806
91	0xbc15da9e	-0.009146361
92	0x3c590ac6	0.0132471975
93	0xbc3b04e1	-0.011414737
94	0x3d361b21	0.044459466
95	0x3d568ed3	0.0523823
96	0x3cf16f1e	0.02947193
97	0x3cb8d7ae	0.022563782
98	0xbccceea8	-0.025016144
99	0x3c9b27aa	0.018939812
100	0xbc415ca2	-0.011801871
101	0x3b855143	0.004068525
102	0xba9d6fb6	-0.0012011442
103	0xba87a10c	-0.0010347678
104	0x3cb48816	0.022037547
105	0x3b788399	0.0037920235
106	0xbce3c57f	-0.027804134
107	0xbcbe7073	-0.02324698
108	0x3d5f6a0a	0.054544486
109	0xbdaf305f	-0.08554148
110	0xbc626e2e	-0.013820214
111	0xbc988dc2	-0.018622283
112	0xbc78b411	-0.01517965
113	0xbc73dce8	-0.014884211
114	0x3d0eb545	0.03484084
115	0x3b03071d	0.0019993254
116	0xbd10ccb9	-0.03535149
117	0xbd4d7f6a	-0.05017034
118	0x3c3e2780	0.011606097
119	0x3a324f5b	0.0006801986
120	0x3ad4f226	0.0016246482
121	0x398dc5a9	0.00027040884
122	0x3c9e762a	0.019343454
123	0x3a416054	0.000737672
124	0xbd9c05dc	-0.07618305
125	0xbd9808c5	-0.07423548
126	0x3d8ec97c	0.06972024
127	0x3d220e49	0.039564405
128	0xbdc13884	-0.094346076
129	0xbd1cc8d3	-0.03827746
130	0x3bc2880d	0.0059366287
131	0x3bebc332	0.0071949
132	0x3cbe5cf4	0.023237683
133	0x3c1bc8c7	0.009508318
134	0xbcdd07b8	-0.02698122
135	0x3c92c2b0	0.0179151
136	0x3d4c747d	0.04991578
137	0xba0b42b9	-0.00053123716
138	0xbc94b145	-0.018150935
139	0x3ce8f492	0.028436933
140	0x3c09ac18	0.008402847
141	0xbb4bcc9c	-0.0031097298
142	0x3d848c1d	0.06472037
143	0xbd290268	-0.04126206
144	0x3d011930	0.03151816
145	0x3a1088e1	0.00055135606
146	0x3d7750fd	0.06037997
147	0x3be1b88d	0.0068884552
148	0x3c0948c2	0.008379163
149	0x3b81f6be	0.0039661815
150	0x3ced1364	0.02893991
151	0xbcb40106	-0.021973144
152	0x3c35603e	0.011070309
153	0x3bcc006e	0.006225637
154	0xbd179f9b	-0.037017446
155	0xbcb873c9	-0.022516148
156	0x3c58edb9	0.013240271
157	0x3bca8730	0.0061806664
158	0x3cb64e0e	0.022254016
159	0x3c4356b2	0.011922525
160	0xbc053e4d	-0.008132529
161	0xbc27ef1d	-0.01024988
162	0x3b8f45f7	0.004372354
163	0xbb658a74	-0.0035025151
164	0xbac45935	-0.0014980199
165	0xb9e9ce2e	-0.0004459484
166	0x3beb8113	0.0071870177
167	0x3b35ef66	0.00277611
168	0xbcc3726c	-0.023858272
169	0xbc75ad20	-0.0149948895
170	0xbd28b0f0	-0.041184366
171	0x3cc3a881	0.02388406
172	0xbc036554	-0.008019764
173	0xbc124a16	-0.008928796
174	0xbcfd40a7	-0.030914618
175	0x3ce1ce42	0.027564172
176	0x3c22a249	0.009926387
177	0xbb9bd2c3	-0.0047553494
178	0xbbfa2c82	-0.0076347003
179	0xbc1b0469	-0.009461501
180	0xbca6dc41	-0.020368697
181	0xbbab753d	-0.0052324818
182	0x3d2b287f	0.041786667
183	0xbcd5ed5a	-0.026114155
184	0x3c0a35f3	0.008435714
185	0xbbbecaa2	-0.0058224956
186	0xbd25f651	-0.04051811
187	0xbc8f2306	-0.017472755
188	0x3c8e1288	0.01734282
189	0x3c99d557	0.018778486
190	0xbd0f9bac	-0.03506057
191	0xbc64296d	-0.013925892
192	0x3caa6066	0.02079792
193	0xbc7544a1	-0.014969976
194	0xbc37d95c	-0.011221256
195	0xba371c6b	-0.00069851306
196	0x3d65f4f1	0.056141797
197	0xbd6704b6	-0.056400977
198	0x3cd73c40	0.026273847
199	0xbab11862	-0.0013511295
200	0x3d00263c	0.031286463
201	0x3c38a57f	0.011269926
202	0x3d39425c	0.0452293
203	0xbd0875e1	-0.033315543
204	0x3dd2e68c	0.102978796
205	0xbdc98625	-0.09840039
206	0xbd3d448f	-0.04620796
207	0x3cf184a8	0.0294822
208	0x3ac285dc	0.0014840919
209	0xb6b91246	-5.515557e-06
210	0x3d57872c	0.052619144
211	0xbc63729b	-0.013882305
212	0xbd390c9a	-0.045178033
213	0x3adff7e6	0.0017087429
214	0xbd09d1bd	-0.033647288
215	0xbd0a5121	-0.033768777
216	0xbb017c4a	-0.001975792
217	0xb93291c2	-0.00017029702
218	0x3ccb81a7	0.024842096
219	0x3cef2163	0.029190725
220	0xbc3fe788	-0.011712916
221	0xbac244ac	-0.0014821491
222	0x3c95fff2	0.01831052
223	0x3b308394	0.0026933895
224	0xbc026c46	-0.007960385
225	0x3b495d9c	0.0030725962
226	0xbd144a96	-0.036203943
227	0xbb8ba9e3	-0.0042621954
228	0x3bf0598d	0.007334894
229	0xbba1b470	-0.00493484
230	0xbc005e59	-0.007834994
231	0x3bc6c0a0	0.006065443
232	0xbc6a88c3	-0.014314833
233	0xbba102bf	-0.0049136574
234	0x3d32f7a5	0.043693203
235	0xbca70c6f	-0.020391671
236	0x3d2be9ca	0.041971005
237	0x3cf04f4a	0.029334683
238	0xbc16b3cf	-0.009198143
239	0xbc135b0f	-0.008993878
240	0x3d2591a7	0.040422108
241	0x3d8b8d83	0.068141006
242	0xbcccfa76	-0.025021773
243	0x3b941109	0.0045186323
244	0x3ca52389	0.020158546
245	0xbc4e3bb0	-0.012587473
246	0xbcf8871f	-0.030337868
247	0xbbaafaaf	-0.005217872
248	0x3cee19b1	0.029064985
249	0xbb2e01fe	-0.002655148
250	0xbc961734	-0.018321611
251	0xbc81f0e2	-0.015861932
252	0x3c5cf346	0.013485735
253	0x3abc9bc8	0.0014389688
254	0x3ca84aa0	0.020543396
255	0xbcf33a67	-0.029690934
