model/model-dis-hist.npy (npy, 6248 bytes, 1 tensors)

array f8 [3, 257]
000000 55 24 08 dd e6 63 e9 be bc 2d c0 7c 78 2e 47 3f
       -1.2107010577204971e-05 0.0007074440304690103
000010 ed 54 f4 fa 0d f8 58 bf 34 aa ac 5c cd d3 3a bf
       -0.0015239845777775222 -0.0004093529102414978
000020 67 15 72 9c fe 2e 2a bf ed 62 8e ca b2 86 39 bf
       -0.00019976480527731795 -0.0003894983770407607
000030 80 bf d2 05 f4 92 36 bf 5a 0c 78 4a 8c 69 31 bf
       -0.00034445245348545955 -0.00026569056578313254
000040 2a 47 e0 b7 9e 26 14 3f bd 54 08 ae 89 58 07 bf
       7.686942805687201e-05 -4.4528676657198844e-05
000050 ad 54 2b ed 53 19 06 3f 00 f0 bc 08 cb 81 a7 be
       4.215037701774927e-05 -7.005633206667687e-07
000060 4e 0a c1 cd 32 9c e0 be b6 45 bd b6 a8 f1 e2 be
       -7.920336820292945e-06 -9.033193883264657e-06
000070 6f a0 ca 4e c0 12 2b bf cf dd 77 0f d9 dd 12 3f
       -0.00020655248171874997 7.197034198457647e-05
000080 01 0a 56 67 b0 fd 11 bf 06 ed 36 bc 8f 18 1c bf
       -6.863011534189585e-05 -0.00010717751779669793
000090 a2 3f 8f f1 bf 7e e6 3e ab 34 77 ad 51 cb 21 3f
       1.0726507342711918e-05 0.00013575908700006375
0000a0 b1 d1 23 82 c8 d5 40 3f 6e 52 4f 8e c4 72 f4 3e
       0.0005137661976549105 1.9501029686912916e-05
0000b0 8a eb 03 ef 35 00 3a 3f 15 a5 a1 26 53 c6 1c 3f
       0.0003967410730322743 0.00010976679337350679
0000c0 17 a5 c8 c0 48 27 15 3f 6a 39 37 44 1b 0a 5a 3f
       8.069402265022497e-05 0.0015893236421678733
0000d0 6e a3 79 97 d4 0c 46 3f f5 67 f8 f8 09 80 57 bf
       0.0006729162259492113 -0.0014343354595269784
0000e0 e6 bd f1 33 ef f1 4b bf c6 80 b7 53 39 ef 30 bf
       -0.0008528154356905431 -0.00025839948258800057
0000f0 86 41 c3 ef d1 0e 57 3f c5 49 c2 e0 d3 50 63 3f
       0.0014073419725272054 0.002357877563619245
000100 1c d6 47 89 22 11 6b 3f 70 a2 4b a1 91 df 76 3f
       0.0033040689979724324 0.005584305636809547
000110 b8 0e 91 5d 6f 89 74 3f e8 b7 6d 30 15 34 6a 3f
       0.005013880750144466 0.003198663125139046
000120 c8 f1 a0 77 cb c2 5e 3f 6a 40 cb f9 a0 69 5b 3f
       0.0018774973855349864 0.0016731330899127047
000130 a1 cf e9 54 af f6 65 3f cf f5 f8 f1 28 43 55 3f
       0.0026811050841448335 0.001297750459243619
000140 8e 81 68 28 43 4a 41 bf 84 1c bd 7d 70 8f 40 bf
       -0.0005276515883601439 -0.0005053805611873329
000150 28 2f 4d 23 9c 78 13 3f 57 23 52 b8 3b c2 4e 3f
       7.42764758118712e-05 0.0009386817552164789
000160 98 41 bc 56 8b 27 61 3f a5 aa d1 d7 bd e5 62 3f
       0.0020940515004285835 0.00230681494445169
000170 87 af d6 b7 f5 8c 65 3f a2 a4 ec 76 4c ed 60 3f
       0.0026306914503119757 0.002066277832814282
000180 28 22 3f d2 81 a7 6a 3f 46 6e 20 66 a4 af 64 3f
       0.0032537017413896314 0.002525158969559435
000190 4a 93 4c 9b 69 3c 72 3f 2d 97 29 f7 ba 59 60 3f
       0.0044521451243653785 0.0019959117574214398
0001a0 d6 ab f1 94 a5 87 47 3f 24 f8 eb 0d 4c 09 50 bf
       0.0007180746560043704 -0.0009787790983746348
0001b0 4e 82 99 12 fe d5 2a bf 88 b2 99 b4 dc f2 6f bf
       -0.00020474173043096223 -0.0038999853757587
0001c0 da 25 8d 04 cf 53 64 bf eb 34 28 18 69 36 70 bf
       -0.002481369334792244 -0.003958139920098728
0001d0 94 e3 2d 13 f5 6d 70 bf da 7b 72 b2 8c 0c 69 bf
       -0.00401111347570628 -0.0030577419270936103
0001e0 2c 25 8d df ba 08 6b bf e8 8e 14 46 30 23 65 bf
       -0.003300061213313518 -0.0025802557799056054
0001f0 4d b1 6b 27 38 74 59 bf 93 5e f8 26 58 65 5a bf
       -0.0015535877589015368 -0.0016110764371485605
000200 d7 f2 b5 c1 33 d9 5e bf 88 69 81 1b c1 92 5c bf
       -0.0018828397213318992 -0.0017439733328702151
000210 7a 6d 27 ee c4 ca 62 bf 3f 18 12 2a 39 8e 51 bf
       -0.0022939535422047937 -0.0010715063329214262
000220 e7 15 80 5e 01 37 63 bf fc 8d 5d 9a ac f6 62 bf
       -0.0023455645314267473 -0.0023148890640400915
000230 8f 1b 11 88 e5 27 46 bf ab 41 ed ff af f5 5b bf
       -0.00067614276498139 -0.0017065256831366542
000240 e1 4b 20 cb 2b 4b 65 bf c4 89 6c ed 42 7e 56 bf
       -0.002599320921043966 -0.0013728765095001186
000250 78 e1 e0 e2 c5 9d 3c bf bc 05 c1 6a 34 19 50 bf
       -0.0004366500969612756 -0.000982571781620186
000260 54 d9 7e 2d 8f 1c 5c bf 82 fd 48 fd 9d 1f 4d bf
       -0.001715793439854692 -0.0008887788231461277
000270 d5 5a ea 30 69 1a 41 bf bc fe 48 b6 dc f5 5f bf
       -0.0005219472530651701 -0.0019507079497457632
000280 c2 a8 81 b0 58 85 3a bf 62 0a 1d 35 78 64 61 bf
       -0.00040467658300847806 -0.002123102932189356
000290 87 9e 0c ec cb 25 2e bf a3 2b c3 ef 5b 65 56 bf
       -0.0002300082615189667 -0.0013669393365940217
0002a0 6f 98 15 d0 53 91 3b bf 82 da e1 df e7 7b 62 bf
       -0.0004206494923749753 -0.0022563484954461486
0002b0 71 ad 44 dd 14 a9 50 bf 47 46 c1 72 84 2c 61 bf
       -0.0010168746712889388 -0.0020964228515729963
0002c0 6f 23 0a b5 56 da 51 bf 90 8b e6 6a 8f b5 60 bf
       -0.0010896536588537971 -0.0020396996616951005
0002d0 bd 6f 1d 54 89 67 4f bf aa 5f 5c a8 cc 78 5a bf
       -0.0009583874272993603 -0.0016157148942905577
0002e0 6d b5 dc 51 78 a3 48 bf 5c 3e 3c 1f ff 89 50 bf
       -0.0007519090174576256 -0.001009463446226897
0002f0 c0 e2 64 a2 32 05 10 bf 48 12 08 9d ab 3a 56 bf
       -6.111260936315487e-05 -0.0013567615425255242
000300 19 9d da 5d 53 f6 4c bf 0d 30 8b dc 6a b6 5d bf
       -0.0008838564933356968 -0.0018135112351727073
000310 f3 66 f8 c8 5c ed 63 bf d3 07 dc f1 63 cc 64 bf
       -0.0024325191695994063 -0.002538867191902641
000320 ce 02 f7 a6 77 d7 72 bf a8 44 61 a7 b0 04 6a bf
       -0.004600016967231736 -0.003176064517028527
000330 0e ca ea dc 4a 2a 77 bf f5 78 b3 26 58 1e 60 bf
       -0.005655567582538724 -0.0019675943091065303
000340 9d 02 49 2f 24 20 67 bf 25 4e 6a 42 57 5b 65 bf
       -0.002822943375832955 -0.002607031277259047
000350 ca 56 ae 99 f8 40 48 bf 7e ef 05 13 43 03 6b bf
       -0.0007401670330746343 -0.0032974538846115
000360 c4 1b 19 99 f2 eb 67 bf 02 5a f2 8a 2e 52 50 3f
       -0.0029201257937389886 0.000996156169809859
000370 6f d6 d3 13 98 2e 59 bf 7c 04 25 53 d1 52 51 3f
       -0.0015369877940520046 0.0010573429286327143
000380 7a 61 e2 a2 22 c9 61 bf 77 6d 96 93 d2 76 45 bf
       -0.002171104096373164 -0.0006550338941226215
000390 e4 9d 10 b5 60 69 5d bf bd cc 16 69 29 49 53 bf
       -0.0017951435477331296 -0.001177111091561752
0003a0 6e dc c9 8e aa f0 65 bf 0a 75 b3 b2 b9 83 65 bf
       -0.0026782351690673367 -0.0026262881197981524
0003b0 75 08 cf 32 c2 40 66 bf 59 6a 17 93 ec d7 67 bf
       -0.0027164261759660643 -0.002910577831000166
0003c0 18 fe 97 27 46 cb 53 bf 00 1f e4 f0 a4 33 64 bf
       -0.0012081322769289578 -0.002466032171586252
0003d0 ac 57 0c c9 1d 79 68 bf 1f e9 2a 8c 9b e1 6e bf
       -0.0029874402756701803 -0.0037696874654474933
0003e0 06 cc ec 59 1a 4d 6f bf 1a 62 35 74 a8 90 70 bf
       -0.003820945231745923 -0.004044206641389292
0003f0 e3 cf 00 cc 6a 90 6c bf 17 aa 2b f6 bc aa 65 bf
       -0.003486832225485502 -0.002644890847809177
000400 64 3a 54 d9 62 8d 6a bf 3f c8 4e 5e 87 cf 74 bf
       -0.003241246284807974 -0.005080727370044668
000410 ca e5 b8 67 0e 1e 6d bf 3e b3 02 5d ad f9 66 bf
       -0.0035543710089569235 -0.0028046022417441965
000420 2b fd 75 52 99 0f 73 bf ee fb 6d c3 e3 04 72 bf
       -0.004653548159125702 -0.004399194432038718
000430 a2 47 f6 7d fa 51 65 bf 36 f3 47 e5 88 7f 67 bf
       -0.002602566950096156 -0.002868430494571329
000440 22 2d 9d 8e 03 ac 6d bf ec 50 bc b6 05 bc 56 bf
       -0.0036220616792995855 -0.0013876014517722425
000450 d7 26 c4 f4 74 2d 6b bf 8f b7 11 39 dd a5 5c bf
       -0.0033175739573650764 -0.001748529470457314
000460 d6 10 58 2b e3 5c 5e bf c8 17 87 a3 a0 2b 04 bf
       -0.00185320076468636 -3.847202282573865e-05
000470 1a 0b 46 10 b4 a7 60 bf b9 bf b0 5f 71 33 60 bf
       -0.0020330921999528575 -0.001977654870209702
000480 b3 92 ae 83 b6 5a 42 bf 02 4e b7 9b 0d f5 24 3f
       -0.0005601302321918883 0.00015989104382062308
000490 f9 a6 26 01 6a e0 51 3f da c9 ff a5 e5 0d 57 3f
       0.0010911021423489194 0.0014071219120493834
0004a0 b1 41 b1 22 d4 85 44 bf 7c 1a 20 de d1 d9 52 3f
       -0.0006263051813082868 0.0011505650986706464
0004b0 b3 33 ce 0c 72 96 47 3f 92 4f 7b 71 de 7c 5e 3f
       0.0007198387989873961 0.0018608257577641158
0004c0 cf 1a 91 15 b2 29 35 3f 54 e8 b0 27 20 2e 1e 3f
       0.00032291982421776567 0.00011512824305351502
0004d0 fe f0 99 1c 21 e9 65 3f e8 ae a0 47 be ba 6e 3f
       0.002674641295753343 0.0037511555101640177
0004e0 35 19 33 f4 3c 2f 63 3f 48 10 36 22 2c 9e 52 3f
       0.0023418608194304643 0.0011363440506508993
0004f0 1c 2b d7 0f 94 b3 64 3f 27 81 54 70 4a 26 65 3f
       0.0025270358880552634 0.002581735027561777
000500 fe dc 81 a8 2b 9e 66 3f 70 65 86 58 0b e7 65 3f
       0.0027609684657893254 0.0026736470792456044
000510 a0 e6 48 ff 76 2b 5e 3f 63 40 83 06 d0 3c 69 3f
       0.0018414175111857514 0.0030807555195693655
000520 c0 4b 62 d5 b5 f5 52 3f dc 5a ea 31 22 41 3d 3f
       0.0011572147100522429 0.00044638714636262094
000530 4d 1a 8b b8 d4 d4 63 3f a2 d4 37 70 ee 10 44 bf
       0.002420821638540438 -0.0006123699426427052
000540 37 12 a5 a0 f1 6d 54 3f b1 a6 86 9d b5 64 51 3f
       0.001246915783284964 0.0010616086566223421
000550 1f b6 18 b9 49 4e 54 3f 94 32 56 db ed df 26 bf
       0.0012393684340951184 -0.00017452028775401653
000560 60 f3 fd 0a fa 00 e6 be 28 f1 06 14 b7 c8 4d bf
       -1.049223678228358e-05 -0.0009089368759798476
000570 b4 33 09 66 31 4d 4a 3f 97 19 1a e2 4d 5a 6a 3f
       0.0008026591495507913 0.0032168885380229983
000580 9d e8 9f 6a d5 b5 6a 3f 56 14 20 c2 df ac 6d 3f
       0.003260533169847936 0.0036224718360267456
000590 61 a8 18 4a 90 a1 70 3f ee 79 41 af bd 93 68 3f
       0.004060329084987741 0.0030001358773425945
0005a0 7b 5f 1b fb df f3 71 3f 86 e9 fe 0e 99 2f 6c 3f
       0.004382967877709971 0.0034406651902518263
0005b0 6f ba d8 ed b8 99 72 3f 6c 6d 0d a8 3b 84 79 3f
       0.004541132334948557 0.006229622872378254
0005c0 fe 4c 45 ca 58 9f 74 3f c4 ac 7a 45 2d 6b 76 3f
       0.005034777485281026 0.005473305550974309
0005d0 e3 15 9a 51 4c e3 72 3f 10 d2 dc a4 59 b9 74 3f
       0.004611299629350782 0.005059576198438012
0005e0 5c 25 01 db c0 a6 6b 3f 30 f6 a4 24 69 ff 74 3f
       0.003375412627097658 0.005126391139410866
0005f0 9d 5b 64 0d 3e 32 77 3f 33 cd 83 27 8a 35 79 3f
       0.005663149253698399 0.006154575028847464
000600 23 a7 4d ea 2e ea 71 3f be e3 45 6e 65 1a 72 3f
       0.00437372518795501 0.004419704641230147
000610 a7 87 c5 98 ef 3c 66 3f 56 76 39 92 c6 61 60 3f
       0.0027146033882425482 0.001999748072008238
000620 89 79 6a 6f b0 c2 5d 3f 9e 28 07 23 d5 55 5f 3f
       0.0018164370536975802 0.0019125539221130148
000630 90 eb 4e bc 0a f8 50 3f e9 54 9d d2 b4 59 5f bf
       0.0010357003059044724 -0.001913477501564837
000640 90 c4 ee 6c fe a6 72 bf 69 2d 99 62 a9 f5 70 bf
       -0.004553788995438471 -0.00414053121637479
000650 1c dc 0a 49 71 0a 6f bf d9 51 87 73 34 2f 60 bf
       -0.0037891590694374543 -0.00197563404456445
000660 1f 27 8b be 55 89 34 bf b9 52 5b b3 3b b9 45 bf
       -0.00031336158148730255 -0.0006629506594558388
000670 af 54 c1 76 f5 ce 4b 3f bb 51 d2 da c0 4a 57 3f
       0.0008486460260522989 0.0014216311786060382
000680 0c ad cb 87 bb 20 5b 3f c9 45 20 61 52 1d 65 3f
       0.0016557532646242516 0.0025774582836752585
000690 fe a7 32 c6 56 c9 68 3f 0e ad ce f7 09 e5 5b 3f
       0.003025693398361006 0.0017025563567852372
0006a0 d5 9d b8 5c 50 3e 5e 3f a8 48 49 82 3f ec 57 3f
       0.001845911482527875 0.00146013452571884
0006b0 74 b4 61 7c cc c7 4b 3f af 8a 97 97 77 93 54 3f
       0.0008477924791471373 0.0012558620350026463
0006c0 b8 6c 58 9e d8 fc 39 3f f2 f0 2d 62 11 08 30 3f
       0.00039654053247923813 0.0002446215095728419
0006d0 a8 ee 05 05 bc 0e 23 3f 3e 63 88 4f 53 7f 26 3f
       0.00014539761697195575 0.00017164127326976282
0006e0 75 c6 10 b4 8c fa 06 3f 10 8b 6f 36 83 4f 13 3f
       4.3828410078450385e-05 7.366407736201738e-05
0006f0 b0 94 1f b7 25 3f e7 be 50 6f 77 a6 22 f9 dd 3e
       -1.108487569818415e-05 7.1461641719358545e-06
000700 82 47 13 17 bb 97 f3 3e 00 00 00 00 00 00 00 00
       1.8685053366613708e-05 0.0
000710 00 00 00 00 00 00 00 00 00 00 00 00 00 00 00 00
       0.0 0.0
000720 00 1c 68 9c 68 03 e8 3e 00 00 00 00 00 00 00 00
       1.1450440877259702e-05 0.0
000730 00 00 00 00 00 00 00 00 00 00 00 00 00 00 00 00
       0.0 0.0
000740 00 00 00 00 00 00 00 00 00 00 00 00 00 00 00 00
       0.0 0.0
000750 00 00 00 00 00 00 00 00 00 00 00 00 00 00 00 00
       0.0 0.0
000760 00 00 00 00 00 00 00 00 00 00 00 00 00 00 00 00
       0.0 0.0
000770 00 00 00 00 00 00 00 00 00 00 00 00 00 00 00 00
       0.0 0.0
000780 00 00 00 00 00 00 00 00 00 00 00 00 00 00 00 00
       0.0 0.0
000790 00 00 00 00 00 00 00 00 00 00 00 00 00 00 00 00
       0.0 0.0
0007a0 00 00 00 00 00 00 00 00 00 00 00 00 00 00 00 00
       0.0 0.0
0007b0 00 00 00 00 00 00 00 00 00 00 00 00 00 00 00 00
       0.0 0.0
0007c0 00 00 00 00 00 00 00 00 00 00 00 00 00 00 00 00
       0.0 0.0
0007d0 00 00 00 00 00 00 00 00 00 00 00 00 00 00 00 00
       0.0 0.0
0007e0 00 00 00 00 00 00 00 00 00 00 00 00 00 00 00 00
       0.0 0.0
0007f0 00 00 00 00 00 00 00 00 00 00 00 00 00 00 00 00
       0.0 0.0
